…
│    └─14.bias                                                                               ├─2,048                   [2048]
│    └─15.weight                                                                             ├─2,048                   [2048]
│    └─15.bias                                                                               ├─2,048                   [2048]
│    └─18.weight                                                                             ├─131,072                 [1, 131072]
│    └─18.bias                                                                               └─1                       [1]
│    └─Conv2d: 2-1                       [1, 3, 512, 512]          [1, 64, 256, 256]         3,136                     [4, 4]                    205,520,896
│    │    └─weight                                                                           ├─3,072                   [3, 64, 4, 4]
│    │    └─bias                                                                             └─64                      [64]
│    └─LeakyReLU: 2-2                    [1, 64, 256, 256]         [1, 64, 256, 256]         --                        --                        --
│    └─Conv2d: 2-3                       [1, 64, 256, 256]         [1, 128, 128, 128]        131,200                   [4, 4]                    2,149,580,800
│    │    └─weight                                                                           ├─131,072                 [64, 128, 4, 4]
│    │    └─bias                                                                             └─128                     [128]
│    └─BatchNorm2d: 2-4                  [1, 128, 128, 128]        [1, 128, 128, 128]        256                       --                        256
│    │    └─weight                                                                           ├─128                     [128]
│    │    └─bias                                                                             └─128                     [128]
│    └─LeakyReLU: 2-5                    [1, 128, 128, 128]        [1, 128, 128, 128]        --                        --                        --
│    └─Conv2d: 2-6                       [1, 128, 128, 128]        [1, 256, 64, 64]          524,544                   [4, 4]                    2,148,532,224
│    │    └─weight                                                                           ├─524,288                 [128, 256, 4, 4]
│    │    └─bias                                                                             └─256                     [256]
│    └─BatchNorm2d: 2-7                  [1, 256, 64, 64]          [1, 256, 64, 64]          512                       --                        512
│    │    └─weight                                                                           ├─256                     [256]
│    │    └─bias                                                                             └─256                     [256]
│    └─LeakyReLU: 2-8                    [1, 256, 64, 64]          [1, 256, 64, 64]          --                        --                        --
│    └─Conv2d: 2-9                       [1, 256, 64, 64]          [1, 512, 32, 32]          2,097,664                 [4, 4]                    2,148,007,936
│    │    └─weight                                                                           ├─2,097,152               [256, 512, 4, 4]
│    │    └─bias                                                                             └─512                     [512]
│    └─BatchNorm2d: 2-10                 [1, 512, 32, 32]          [1, 512, 32, 32]          1,024                     --                        1,024
│    │    └─weight                                                                           ├─512                     [512]
│    │    └─bias                                                                             └─512                     [512]
│    └─LeakyReLU: 2-11                   [1, 512, 32, 32]          [1, 512, 32, 32]          --                        --                        --
│    └─Conv2d: 2-12                      [1, 512, 32, 32]          [1, 1024, 16, 16]         8,389,632                 [4, 4]                    2,147,745,792
│    │    └─weight                                                                           ├─8,388,608               [512, 1024, 4, 4]
│    │    └─bias                                                                             └─1,024                   [1024]
│    └─BatchNorm2d: 2-13                 [1, 1024, 16, 16]         [1, 1024, 16, 16]         2,048                     --                        2,048
│    │    └─weight                                                                           ├─1,024                   [1024]
│    │    └─bias                                                                             └─1,024                   [1024]
│    └─LeakyReLU: 2-14                   [1, 1024, 16, 16]         [1, 1024, 16, 16]         --                        --                        --
│    └─Conv2d: 2-15                      [1, 1024, 16, 16]         [1, 2048, 8, 8]           33,556,480                [4, 4]                    2,147,614,720
│    │    └─weight                                                                           ├─33,554,432              [1024, 2048, 4, 4]
│    │    └─bias                                                                             └─2,048                   [2048]
│    └─BatchNorm2d: 2-16                 [1, 2048, 8, 8]           [1, 2048, 8, 8]           4,096                     --                        4,096
│    │    └─weight                                                                           ├─2,048                   [2048]
│    │    └─bias                                                                             └─2,048                   [2048]
│    └─LeakyReLU: 2-17                   [1, 2048, 8, 8]           [1, 2048, 8, 8]           --                        --                        --
│    └─Flatten: 2-18                     [1, 2048, 8, 8]           [1, 131072]               --                        --                        --
│    └─Linear: 2-19                      [1, 131072]               [1, 1]                    131,073                   --                        131,073
│    │    └─weight                                                                           ├─131,072                 [131072, 1]
│    │    └─bias                                                                             └─1                       [1]
│    └─Sigmoid: 2-20                     [1, 1]                    [1, 1]                    --                        --                        --
=====================================================================================================================================================================
Total params: 44,841,665
Trainable params: 44,841,665
Non-trainable params: 0
Total mult-adds (G): 10.95
=====================================================================================================================================================================
…
