…
│    └─18.bias                                                                               ├─16                      [16]
│    └─19.weight                                                                             ├─16                      [16]
│    └─19.bias                                                                               ├─16                      [16]
│    └─21.weight                                                                             ├─432                     [3, 16, 3, 3]
│    └─21.bias                                                                               └─3                       [3]
│    └─BatchNorm2d: 2-2                  [1, 512, 16, 16]          [1, 512, 16, 16]          1,024                     --                        1,024
│    │    └─weight                                                                           ├─512                     [512]
│    │    └─bias                                                                             └─512                     [512]
│    └─Upsample: 2-3                     [1, 512, 16, 16]          [1, 512, 32, 32]          --                        --                        --
│    └─Conv2d: 2-4                       [1, 512, 32, 32]          [1, 256, 32, 32]          1,179,904                 [3, 3]                    1,208,221,696
│    │    └─weight                                                                           ├─1,179,648               [512, 256, 3, 3]
│    │    └─bias                                                                             └─256                     [256]
│    └─BatchNorm2d: 2-5                  [1, 256, 32, 32]          [1, 256, 32, 32]          512                       --                        512
│    │    └─weight                                                                           ├─256                     [256]
│    │    └─bias                                                                             └─256                     [256]
│    └─ReLU: 2-6                         [1, 256, 32, 32]          [1, 256, 32, 32]          --                        --                        --
│    └─Upsample: 2-7                     [1, 256, 32, 32]          [1, 256, 64, 64]          --                        --                        --
│    └─Conv2d: 2-8                       [1, 256, 64, 64]          [1, 128, 64, 64]          295,040                   [3, 3]                    1,208,483,840
│    │    └─weight                                                                           ├─294,912                 [256, 128, 3, 3]
│    │    └─bias                                                                             └─128                     [128]
│    └─BatchNorm2d: 2-9                  [1, 128, 64, 64]          [1, 128, 64, 64]          256                       --                        256
│    │    └─weight                                                                           ├─128                     [128]
│    │    └─bias                                                                             └─128                     [128]
│    └─ReLU: 2-10                        [1, 128, 64, 64]          [1, 128, 64, 64]          --                        --                        --
│    └─Upsample: 2-11                    [1, 128, 64, 64]          [1, 128, 128, 128]        --                        --                        --
│    └─Conv2d: 2-12                      [1, 128, 128, 128]        [1, 64, 128, 128]         73,792                    [3, 3]                    1,209,008,128
│    │    └─weight                                                                           ├─73,728                  [128, 64, 3, 3]
│    │    └─bias                                                                             └─64                      [64]
│    └─BatchNorm2d: 2-13                 [1, 64, 128, 128]         [1, 64, 128, 128]         128                       --                        128
│    │    └─weight                                                                           ├─64                      [64]
│    │    └─bias                                                                             └─64                      [64]
│    └─ReLU: 2-14                        [1, 64, 128, 128]         [1, 64, 128, 128]         --                        --                        --
│    └─Upsample: 2-15                    [1, 64, 128, 128]         [1, 64, 256, 256]         --                        --                        --
│    └─Conv2d: 2-16                      [1, 64, 256, 256]         [1, 32, 256, 256]         18,464                    [3, 3]                    1,210,056,704
│    │    └─weight                                                                           ├─18,432                  [64, 32, 3, 3]
│    │    └─bias                                                                             └─32                      [32]
│    └─BatchNorm2d: 2-17                 [1, 32, 256, 256]         [1, 32, 256, 256]         64                        --                        64
│    │    └─weight                                                                           ├─32                      [32]
│    │    └─bias                                                                             └─32                      [32]
│    └─ReLU: 2-18                        [1, 32, 256, 256]         [1, 32, 256, 256]         --                        --                        --
│    └─Upsample: 2-19                    [1, 32, 256, 256]         [1, 32, 512, 512]         --                        --                        --
│    └─Conv2d: 2-20                      [1, 32, 512, 512]         [1, 16, 512, 512]         4,624                     [3, 3]                    1,212,153,856
│    │    └─weight                                                                           ├─4,608                   [32, 16, 3, 3]
│    │    └─bias                                                                             └─16                      [16]
│    └─BatchNorm2d: 2-21                 [1, 16, 512, 512]         [1, 16, 512, 512]         32                        --                        32
│    │    └─weight                                                                           ├─16                      [16]
│    │    └─bias                                                                             └─16                      [16]
│    └─ReLU: 2-22                        [1, 16, 512, 512]         [1, 16, 512, 512]         --                        --                        --
│    └─Conv2d: 2-23                      [1, 16, 512, 512]         [1, 3, 512, 512]          435                       [3, 3]                    114,032,640
│    │    └─weight                                                                           ├─432                     [16, 3, 3, 3]
│    │    └─bias                                                                             └─3                       [3]
│    └─Tanh: 2-24                        [1, 3, 512, 512]          [1, 3, 512, 512]          --                        --                        --
=====================================================================================================================================================================
Total params: 27,919,747
Trainable params: 27,919,747
Non-trainable params: 0
Total mult-adds (G): 6.19
=====================================================================================================================================================================
…
